saved_models/exported_model.tflite (tflite, 99696 bytes, 7 tensors)

arith.constant f4 [1, 32]
0.018486883 0.006460443 -0.016347012 -0.0283864 0.023855014 0.019349637 -0.04907349 -0.0007498544
-0.013091103 0.07156296 0.0032629585 -0.021807276 -0.008707307 -0.059552066 0.019675123 -0.04253504
-0.019772287 0.0050400137 0.022705054 0.018163735 0.0026518155 -0.027614474 0.023092795 -0.013055535
-0.0073270807 -0.02879077 0.035794877 0.010189511 -0.022823434 -0.009064387 -0.012159907 -0.3129593
00000000: ce71 973c 20b2 d33b 2bea 85bc 988a e8bc
00000010: 976b c33c 2183 9e3c 4901 49bd e091 44ba
00000020: 117c 56bc 9a8f 923d 5cd7 553b 2ca5 b2bc
00000030: 18a9 0ebc deec 73bd b92d a13c 3939 2ebd
00000040: 7ef9 a1bc b326 a53b f3ff b93c 1dcc 943c
00000050: 15ca 2d3b c037 e2bc 1a2d bd3c e2e6 55bc
00000060: 0218 f0bb 9fda ebbc a69d 123d e8f1 263c
00000070: 36f8 babc cb82 14bc 593a 47bc 343c a0be

arith.constant1 f4 [32, 64]
-0.2619222 0.7340584 0.45233777 1.2696272 1.0275811 0.23709893 -0.35288283 0.037841994
-0.11503689 -0.111196645 -0.117011845 -0.4249617 0.050727524 0.58218056 0.021320896 0.011659066
-0.6497755 -0.3941967 0.17693254 0.20013277 0.3482675 0.6248312 -0.0027899088 -0.016272858
0.57202655 0.84807515 -0.21660928 0.7199434 0.36547184 -0.1546855 -0.06358486 -0.00984496
-0.34520754 -0.00045863102 0.5209987 0.07761889 0.6616047 0.35186225 0.86651075 1.5320939
-0.20398645 0.35626677 -0.18717533 1.9838493 0.38044465 0.2464169 0.02937924 -0.33971164
-0.009426933 0.36991054 0.32163778 0.09743692 0.43420038 0.9589933 1.0251182 -0.21807206
-0.45103163 0.19967522 -0.80531657 0.016647384 0.32918304 0.20991781 0.11333479 0.15264402
-0.35071605 1.1106483 0.59513 1.8532634 0.7662948 1.168652 0.5861438 -0.07045106
0.61698407 -0.09139866 -0.16642791 -1.4836639 0.7368995 0.64943 0.0373015 0.0150306625
-0.7870434 -0.27596506 -0.077733584 1.6996263 0.8331089 1.1220368 1.0323519 0.88355887
0.70705295 0.9945533 0.9540662 0.92794776 0.4890791 0.25219518 0.85657215 0.4377026
0.63071233 0.36293206 0.5598811 0.6337561 1.6127179 0.24766994 -0.06638731 0.62083805
0.12813748 1.2890961 0.7461769 1.4071566 -0.015908053 1.4183532 0.1945277 0.4921451
1.5228533 2.3872921 0.117875576 0.22553825 -0.03128399 1.909244 0.09241601 0.24791555
-0.21720752 0.44911346 0.651506 1.1924559 1.7690669 0.5931072 1.0476938 0.003949355
-0.16829835 -0.49762803 0.11103567 -0.043615356 -0.10949207 -0.21219383 -0.037873026 -0.05085918
0.19245794 0.44150895 0.20488314 -0.1993529 0.09654883 0.13723274 0.045485605 0.18440315
-0.3839014 -0.010127958 0.17033835 -0.08556666 0.16815718 -0.14339384 -0.40004617 0.25484303
-0.19705015 0.18048841 0.24460047 0.1645945 -0.28053257 0.13464107 -0.052251134 -0.30880108
0.014087936 -0.26775274 -0.04700247 0.2229403 0.018483011 -0.19564648 -0.3441998 -0.31044278
-0.015719345 -0.029353686 0.14202769 -0.0075014937 0.036333673 -0.07770016 -0.15789239 -0.35645238
0.22102486 0.24487874 0.26245415 -0.12761788 -0.23737273 -0.17074034 -0.30282247 -0.2231698
0.26565224 -0.17015253 0.23160148 -0.21325526 -0.3202731 0.32296726 0.483099 -0.23077443
-0.3712611 -0.071502514 -0.1961448 -0.21623294 -0.1447303 0.15844175 -0.09612952 0.11412335
-0.051304545 0.029784027 -0.016930765 -0.23556793 0.05313291 0.20353758 0.020156827 0.18851134
-0.41402027 0.03528426 0.2334783 0.13634752 -0.049926784 -0.3041461 -0.19701721 -0.13980155
-0.12497852 0.38619557 -0.27754143 -0.16864201 0.11030457 -0.16046001 -0.23115559 0.027060544
-0.0626729 0.15541664 -0.124973975 -0.108282916 -0.16898493 0.14481948 0.059988495 -0.0455209
-0.2564999 0.15863672 -0.12152574 0.24627836 -0.2256763 -0.14353131 -0.19970094 0.13412152
-0.10285336 -0.18276629 -0.22907726 -0.16174449 0.029604265 -0.17491892 -0.00594975 -0.13479269
0.14704376 0.10122707 -0.09662279 0.07256752 -0.3049176 0.081076406 0.1282333 0.11822169
00000000: ab1a 86be 40eb 3b3f d198 e73e 2583 a23f
00000010: c787 833f 10ca 723e 0fad b4be 3500 1b3d
00000020: 7698 ebbd 11bb e3bd e8a3 efbd 9494 d9be
00000030: aac7 4f3d c909 153f 29a9 ae3c ab05 3f3c
00000040: b057 26bf 26d4 c9be ce2d 353e 9bef 4c3e
00000050: 1e50 b23e f0f4 1f3f e7d6 36bb a84e 85bc
00000060: 5570 123f 741b 593f d3ce 5dbe 364e 383f
00000070: 201f bb3e e065 1ebe c738 82bd c14c 21bc
00000080: 0bbf b0be 6a74 f0b9 2c60 053f a7f6 9e3d
00000090: ed5e 293f 4a27 b43e a6d3 5d3f a71b c43f
000000a0: d3e1 50be 9968 b63e e4aa 3fbe c6ee fd3f
000000b0: a4c9 c23e b654 7c3e bbac f03c afee adbe
000000c0: 6c73 1abc ea64 bd3e b5ad a43e 028d c73d
000000d0: 834f de3e 9680 753f 1337 833f 484e 5fbe
000000e0: 9eed e6be a977 4c3e 3a29 4ebf 1860 883c
000000f0: ae8a a83e b2f4 563e 121c e83d b74e 1c3e
00000100: 0e91 b3be b929 8e3f 715a 183f bc37 ed3f
00000110: e52b 443f 6496 953f 850d 163f a548 90bd
00000120: abf2 1d3f 382f bbbd 146c 2abe b3e8 bdbf
00000130: 72a5 3c3f 0b41 263f 75c9 183d 2b43 763c
00000140: ad7b 49bf 4b4b 8dbe c932 9fbd 5b8d d93f
00000150: a046 553f e79e 8f3f 1b24 843f ea30 623f
00000160: 6c01 353f 0c9b 7e3f af3d 743f fc8d 6d3f
00000170: 9368 fa3e ba1f 813e 5048 5b3f 8e1a e03e
00000180: 5d76 213f 3bd2 b93e 5e54 0f3f d73d 223f
00000190: 8a6d ce3f 309d 7d3e 12f6 87bd 3eef 1e3f
000001a0: 7936 033e 1a01 a53f 7305 3f3f b51d b43f
000001b0: 9b51 82bc 998c b53f 4532 473e 71fa fb3e
000001c0: dbec c23f 65c9 1840 c068 f13d 80f3 663e
000001d0: a423 00bd 1b62 f43f 9b44 bd3d 93dd 7d3e
000001e0: a66b 5ebe 33f2 e53e 19c9 263f 65a2 983f
000001f0: c970 e23f e0d5 173f d51a 863f 9769 813b
00000200: 6756 2cbe 1ac9 febe ab66 e33d 04a6 32bd
00000210: 613d e0bd 5749 59be bf20 1bbd b751 50bd
00000220: b213 453e 760d e23e e3cc 513e 2b23 4cbe
00000230: 65bb c53d bd86 0c3e 1d4f 3a3d 2ed4 3c3e
00000240: b98e c4be bcef 25bc 2d6d 2e3e 933d afbd
00000250: 6531 2c3e d6d5 12be dad2 ccbe c97a 823e
00000260: 84c7 49be f4d1 383e 8c78 7a3e 768b 283e
00000270: f7a1 8fbe 59df 093e 4905 56bd 2d1b 9ebe
00000280: 16d1 663c e316 89be a985 40bd 764a 643e
00000290: af69 973c 8d57 48be f53a b0be 5bf2 9ebe
000002a0: dbc5 80bc 2477 f0bc b56f 113e 17cf f5bb
000002b0: 9ed2 143d 4321 9fbd 8bae 21be ed80 b6be
000002c0: 5754 623e 7ec1 7a3e 6460 863e 43ae 02be
000002d0: d611 73be 8ed6 2ebe 8c0b 9bbe a086 64be
000002e0: 9203 883e 773c 2ebe f028 6d3e 965f 5abe
000002f0: d6fa a3be f75b a53e c158 f73e 2250 6cbe
00000300: ef15 bebe e96f 92bd 2fda 48be 2b6c 5dbe
00000310: 2e34 14be 8e3e 223e 8edf c4bd 81b9 e93d
00000320: b724 52bd a2fd f33c 63b2 8abc b838 71be
00000330: e5a1 593d 286c 503e ee1f a53c 1e09 413e
00000340: 77fa d3be 3a86 103d ef14 6f3e af9e 0b3e
00000350: 0780 4cbd 0ab9 9bbe e1be 49be 2328 0fbe
00000360: bdf4 ffbd 6dbb c53e e919 8ebe 7eb0 2cbe
00000370: 5de7 e13d a14f 24be 0db4 6cbe 13ae dd3c
00000380: a65a 80bd 8a25 1f3e 5bf2 ffbd 6fc3 ddbd
00000390: 630a 2dbe 8f4b 143e 7fb6 753d 2074 3abd
000003a0: f453 83be aa71 223e 7de2 f8bd 6530 7c3e
000003b0: b017 67be dff9 12be 677e 4cbe 2757 093e
000003c0: c8a4 d2bd 1627 3bbe 3b93 6abe 59a0 25be
000003d0: a584 f23c f21d 33be 1ff6 c2bb 1807 0abe
000003e0: a492 163e 2350 cf3d 2be2 c5bd 489e 943d
000003f0: 291e 9cbe 630b a63d 974f 033e 371e f23d

arith.constant2 f4 [64, 128]
-0.37286472 0.50751865 0.6974904 -0.061164137 -0.18731019 -0.27859613 0.23076981 0.300668
0.12364325 0.14946781 0.68223464 -0.16620049 -0.65656376 0.5812083 -0.020811368 0.23133954
0.045030534 0.2891574 1.0745934 0.29026213 0.5446901 -1.0459936 0.45999673 0.5923358
-0.55335015 0.012207744 0.06621414 0.4023808 0.30147856 0.5458242 0.03640037 0.58723336
-0.56175315 0.07847327 0.7742128 0.2755281 0.28489348 -0.044884637 0.8885852 0.434376
0.5600836 0.22380951 -0.19216698 0.22385359 0.5161268 0.04339358 0.44821984 0.56852746
0.36217946 0.33507225 0.011278972 0.41668254 0.83969927 0.53101903 -0.53201056 0.8073211
0.28775457 -0.24371198 -0.11102887 -1.0661875 0.16934943 0.023556909 0.46871316 0.20919326
-0.1416329 0.3681838 0.41877255 0.28493264 0.27072868 0.52639514 0.24668722 -0.12122977
0.34731394 0.3412984 0.58845764 0.6274348 -0.4170564 0.13782708 -0.025008576 0.6905883
0.73965454 -0.6020468 0.29402128 0.03256033 0.20846601 0.57730865 -0.02515191 0.3874424
0.51274955 0.18030626 -0.79458976 0.65934616 -0.09132093 1.3399252 -0.41503325 -1.0073371
0.20420319 -0.038593736 0.0550842 -0.3147531 0.44547462 0.44856468 0.41159162 -0.18157734
0.17977478 -0.5568076 0.70247406 0.76313955 -0.96686 0.27720043 0.5489019 0.23705544
0.010984302 -0.20193437 -0.39045152 -0.08496385 0.09141439 0.4256669 0.88824755 -0.4165957
-0.2206126 1.1626638 0.5718552 -0.12272494 -0.09200615 0.50803465 0.1449475 0.7111704
0.31451717 0.005944427 0.040567942 -0.3590083 0.5783423 0.47825715 0.21371847 -0.012694472
0.0387819 -0.6071889 -0.46063974 0.06683602 -0.64373523 -0.23195899 0.22916695 0.2829702
-0.1834293 0.6511602 -0.189013 -0.47554746 0.0018691005 -0.13957511 0.48699865 0.36537483
0.2846017 -0.51443946 0.83933425 0.9486515 -0.3420805 0.30624792 0.23685591 0.4048551
-1.0077899 0.06366571 -0.045706656 0.08815477 0.12577693 0.2182831 0.1151638 -0.42810148
-0.3362742 0.09895316 0.5789583 0.26534772 0.034178145 -0.0808433 0.47799674 -0.45628855
-0.17769249 0.90350485 0.48319596 -0.27779225 -0.44956282 0.12824383 0.20940731 -0.77340674
-0.15739946 0.05102522 0.0607432 -0.7839933 -0.31168234 -0.084114276 -0.54812706 -0.33080953
-0.53673214 1.1220973 0.059351876 -0.071638584 -0.21634716 0.9445846 0.09707694 0.59227854
0.101446405 0.3097689 0.51509035 0.03837724 -0.031382132 -0.15588352 -0.42879102 0.3815543
0.09055906 0.19714747 0.7539143 -0.10523039 -0.58304185 0.220046 -0.9701535 0.13317406
0.02702573 -0.25726777 -0.014388952 -0.11832615 -0.17551291 -0.027733631 0.09496823 -0.81562525
0.37088624 -0.5325453 0.16247463 0.18761535 0.2557056 0.17561698 0.23091541 -0.33477908
0.28013578 -0.58325404 0.17450982 0.39117378 -0.47154722 0.19762103 0.03700792 0.4819642
-0.47880575 -0.015396849 0.58482957 -0.09172051 0.45578158 -0.25136334 -0.13320762 -0.3399003
-0.8203229 0.19527406 0.27031106 0.15386711 0.16356932 0.010843215 -0.0013167887 -0.113740616
00000000: 20e8 bebe beec 013f bb8e 323f 3f87 7abd
00000010: 3ece 3fbe 27a4 8ebe ec4e 6c3e 28f1 993e
00000020: ac38 fd3d 170e 193e eea6 2e3f 7630 2abe
00000030: 9014 28bf 11ca 143f 9a7c aabc 46e4 6c3e
00000040: f071 383d 700c 943e 478c 893f 3d9d 943e
00000050: cf70 0b3f 1ee3 85bf b184 eb3e 52a3 173f
00000060: 5ba8 0dbf fd02 483c 479b 873d db04 ce3e
00000070: 665b 9a3e 23bb 0b3f 8e18 153d ed54 163f
00000080: 0ecf 0fbf 98b6 a03d cf32 463f 0512 8d3e
00000090: 8fdd 913e f4d8 37bd 527a 633f 8866 de3e
000000a0: a461 0f3f 522e 653e 6cc7 44be e039 653e
000000b0: e320 043f 77bd 313d 127d e53e 048b 113f
000000c0: 966f b93e 978e ab3e 70cb 383c 6a57 d53e
000000d0: 88f6 563f ddf0 073f d831 08bf 98ac 4e3f
000000e0: 9154 933e a28f 79be 1b63 e3bd d578 88bf
000000f0: f069 2d3e 6bfa c03c 2cfb ef3e c236 563e
00000100: 3708 11be 9682 bc3e 5b69 d63e b1e2 913e
00000110: f39c 8a3e d5c1 063f 939b 7c3e 5047 f8bd
00000120: 22d3 b13e aabe ae3e 29a5 163f 919f 203f
00000130: 6b88 d5be 8b22 0d3e c9de ccbc 65ca 303f
00000140: 005a 3d3f bd1f 1abf f589 963e fb5d 053d
00000150: 1d78 553e 80ca 133f 610b cebc da5e c63e
00000160: 8e43 033f 34a2 383e 3c6a 4bbf e9ca 283f
00000170: 7806 bbbd ab82 ab3f 3d7f d4be 6cf0 80bf
00000180: a41a 513e 7714 1ebd f89f 613d 5127 a1be
00000190: 4015 e43e 45aa e53e 23bc d23e 69ef 39be
000001a0: e116 383e f18a 0ebf 57d5 333f 1d5d 433f
000001b0: 2384 77bf 37ed 8d3e d684 0c3f a9be 723e
000001c0: 80f7 333c e2c7 4ebe 43e9 c7be 8701 aebd
000001d0: 7837 bb3d 03f1 d93e 3164 633f 084c d5be
000001e0: 45e8 61be 2bd2 943f 1a65 123f 3757 fbbd
000001f0: b86d bcbd 8f0e 023f 1e6d 143e 430f 363f
00000200: 6508 a13e 78c9 c23b 922a 263d f0cf b7be
00000210: 3e0e 143f 1fde f43e 04d9 5a3e 7afc 4fbc
00000220: c5d9 1e3d bb70 1bbf f9d8 ebbe 53e1 883d
00000230: d5cb 24bf a886 6dbe beaa 6a3e 78e1 903e
00000240: e4d4 3bbe 6fb2 263f a08c 41be f57a f3be
00000250: 9bfc f43a c7ec 0ebe e357 f93e 6912 bb3e
00000260: 50b7 913e 4eb2 03bf 9cde 563f d3da 723f
00000270: 2d25 afbe 87cc 9c3e 5b8a 723e 2b49 cf3e
00000280: 42ff 80bf 2b63 823d e736 3bbd 7d8a b43d
00000290: abcb 003e 9b85 5f3e 00db eb3d 1e30 dbbe
000002a0: 222c acbe f4a7 ca3d 9c36 143f a8db 873e
000002b0: 62fe 0b3d 2c91 a5bd fdbb f43e a79e e9be
000002c0: 05f5 35be 184c 673f 7665 f73e c93a 8ebe
000002d0: 192d e6be 5a52 033e df6e 563e fcfd 45bf
000002e0: 532d 21be d2ff 503d ddcd 783d c9b3 48bf
000002f0: d494 9fbe 1b44 acbd 0e52 0cbf de5f a9be
00000300: 4767 09bf e2a0 8f3f f41a 733d 40b7 92bd
00000310: 1c8a 5dbe 4cd0 713f 46d0 c63d 919f 173f
00000320: 22c3 cf3d 079a 9e3e f6dc 033f 7431 1d3d
00000330: 8d8a 00bd ee9f 1fbe 7f8a dbbe 165b c33e
00000340: 0777 b93d 07e1 493e 8700 413f 0883 d7bd
00000350: 3b42 15bf bd53 613e fb5b 78bf c85e 083e
00000360: 1065 dd3c 9ab8 83be a4bf 6bbc fb54 f2bd
00000370: a8b9 33be a431 e3bc b47e c23d d1cc 50bf
00000380: cde4 bd3e e454 08bf c05f 263e 3d1e 403e
00000390: d8eb 823e f0d4 333e 1775 6c3e 2a68 abbe
000003a0: f56d 8f3e 2350 15bf b4b2 323e ee47 c83e
000003b0: a36e f1be 2b5d 4a3e 9e95 173d 03c4 f63e
000003c0: 0726 f5be 1143 7cbc 64b7 153f f6d7 bbbd
000003d0: 345c e93e b2b2 80be 9467 08be 6a07 aebe
000003e0: ae00 52bf ecf5 473e 3666 8a3e 578f 1d3e
000003f0: b77e 273e bda7 313c 1998 acba d7f0 e8bd

arith.constant4 f4 [32]
-0.88277674 -0.692812 -0.27574122 -0.12256182 -0.44145897 0.05164855 -0.5104204 -0.24056193
-0.9838489 1.4878455 0.029934796 -1.2861369 -0.76930094 0.32386822 -0.40752295 -0.31509656
-1.1865783 -0.583414 -0.7216471 -0.5646228 -0.32032895 -0.18552056 -1.0173198 -0.21997866
-0.5665749 0.09484837 0.63481045 0.0010691492 -0.23311348 -0.32677498 -0.73079336 -0.09566626
00000000: a8fd 61bf 215c 31bf f42d 8dbe b101 fbbd
00000010: e906 e2be 6e8d 533d e9aa 02bf de55 76be
00000020: 86dd 7bbf b971 be3f d139 f53c 22a0 a4bf
00000030: e8f0 44bf 0ed2 a53e d9a6 d0be 5654 a1be
00000040: cce1 97bf 9f5a 15bf ddbd 38bf 1f8b 10bf
00000050: 2802 a4be 1af9 3dbe 8937 82bf 1642 61be
00000060: 0d0b 11bf dd3f c23d f082 223f b222 8c3a
00000070: 4db5 6ebe 0d4f a7be 4615 3bbf acec c3bd

sequential_1/dense_1_2/Add/ReadVariableOp f4 [64]
1.4635623 -1.8243324 0.770191 -0.9211163 1.153704 -0.81867343 -0.68143743 -0.11765286
-0.89380765 -0.5806466 -0.07611909 -0.47018138 0.96834815 -1.4036098 -0.1495926 -0.22969064
2.386369 -0.15104957 -0.1423001 -0.20690526 -1.9081609 -0.9971656 -0.87625885 -0.3843511
-1.7621367 -2.1388147 0.11610674 -0.050076734 -1.8852478 -0.1131271 0.8664987 -1.2854986
-0.049315296 -1.1646545 -0.9010174 -0.04091688 -1.9508442 -0.31397963 -1.4290794 -1.2698064
-0.14517157 -1.1299949 -0.9016201 -1.3238432 -0.70469975 -0.43557614 -1.7472898 1.3724508
-1.1811855 0.033629127 -0.16654998 -0.12497323 -2.0381417 -1.3307371 -1.7875767 -1.270564
-0.23407611 1.2653902 -0.95729554 -1.0581979 -1.732542 -0.9782008 -0.53035855 -0.38569
00000000: 0256 bb3f b983 e9bf 3d2b 453f 47ce 6bbf
00000010: 93ac 933f 9594 51bf af72 2ebf fcf3 f0bd
00000020: 94d0 64bf 41a5 14bf 53e4 9bbd 9dbb f0be
00000030: aae5 773f 7ca9 b3bf cd2e 19be 0634 6bbe
00000040: 45ba 1840 bdac 1abe 1eb7 11be f9de 53be
00000050: 9e3e f4bf 3f46 7fbf 8052 60bf abc9 c4be
00000060: b28d e1bf 57e2 08c0 5fc9 ed3d 431d 4dbd
00000070: cd4f f1bf 2eaf e7bd dcd2 5d3f 388b a4bf
00000080: d6fe 49bd 6613 95bf 14a9 66bf 7598 27bd
00000090: 43b5 f9bf f0c1 a0be 13ec b6bf 0489 a2bf
000000a0: dba7 14be aca3 90bf 93d0 66bf b273 a9bf
000000b0: 3467 34bf d603 dfbe 31a7 dfbf 78ac af3f
000000c0: 1631 97bf b2be 093d 148c 2abe f7f1 ffbd
000000d0: ea70 02c0 9855 aabf 50cf e4bf d7a1 a2bf
000000e0: a6b1 6fbe 4ef8 a13f 5211 75bf 0773 87bf
000000f0: f0c3 ddbf 5e6b 7abf 94c5 07bf 2979 c5be

sequential_1/dense_1/Add/ReadVariableOp f4 [128]
-3.321615 -1.161862 -2.3834116 -1.2915356 -3.462328 -3.426861 -1.1744952 -2.2780168
1.0971217 -0.46937048 1.137246 -0.7652859 -2.1001706 1.265421 -2.5205789 -1.9652514
-1.298756 -2.7471485 0.61619467 -0.59965134 -0.47041687 -1.1335374 -1.251414 -1.1953133
-1.8460559 -1.412993 -1.0248761 -2.9320416 -2.8664925 -0.60378903 -0.98568386 -1.5133902
-0.46517798 -1.1495149 -1.528098 -2.4274828 0.20199123 -3.0323892 -1.788333 1.8364733
-1.3701978 -1.164774 -1.3275453 -1.9553869 -0.8370478 -2.489565 -1.5356373 0.095265046
-2.1091688 -2.014768 -1.1700629 -1.504148 2.5188725 -0.26574627 -3.2941656 1.5516582
-0.9895749 -0.88803774 -2.2147639 -0.8681996 -1.5461193 -3.20417 0.111261815 -1.1252698
-2.5078819 -2.5009499 0.310005 -1.0437945 -1.7644571 -2.3277304 -1.8341314 -2.7892866
-2.7659907 -3.0714788 -1.923455 -1.5719177 -1.3195261 0.8450069 -0.44238162 -1.7961373
-0.7393881 -1.2850558 -1.8616667 -2.681999 1.7747056 -0.99360704 0.026533447 0.10715721
1.3036132 -1.5201993e-05 -0.2950722 0.3778774 0.87003386 -0.45708302 -3.697542 -0.36629063
-0.9243622 -0.15034364 -1.0822258 -2.8390467 0.27078354 -1.5911717 -0.88354987 -0.36962217
-1.6225177 -3.7636974 -0.68935305 -2.269952 -0.82500094 -1.1129858 -0.7321321 -1.4979054
1.7423571 -2.815492 -1.6520818 1.0893248 -3.2932246 -1.7821181 -1.0650601 0.1582527
-0.42881787 -0.8895503 -1.9790943 0.71494174 -1.693827 1.00689 -2.3813918 0.6125945
00000000: 5795 54c0 e5b7 94bf d189 18c0 0a51 a5bf
00000010: c896 5dc0 b151 5bc0 dc55 96bf 07cb 11c0
00000020: 7c6e 8c3f 5451 f0be 4791 913f c7e9 43bf
00000030: 3269 06c0 51f9 a13f 2a51 21c0 5c8d fbbf
00000040: a33d a6bf 48d1 2fc0 efbe 1d3f c082 19bf
00000050: 7bda f0be c117 91bf 552e a0bf 0700 99bf
00000060: 8f4b ecbf f4dc b4bf 242f 83bf 92a6 3bc0
00000070: 9d74 37c0 eb91 1abf c755 7cbf c5b6 c1bf
00000080: cf2b eebe 4e23 93bf b798 c3bf e15b 1bc0
00000090: cad6 4e3e aa12 42c0 19e8 e4bf 8f11 eb3f
000000a0: a462 afbf 5017 95bf 01ed a9bf 1e4a fabf
000000b0: c448 56bf 0855 1fc0 c38f c4bf 521a c33d
000000c0: 9ffc 06c0 f5f1 00c0 9fc4 95bf ec87 c0bf
000000d0: 3535 2140 e50f 88be 9cd3 52c0 bc9c c63f
000000e0: c854 7dbf 7156 63bf b1be 0dc0 5442 5ebf
000000f0: 3de7 c5bf 1f11 4dc0 3cdd e33d d708 90bf
00000100: 2381 20c0 900f 20c0 fab8 9e3e 0f9b 85bf
00000110: bbd9 e1bf 89f9 14c0 d1c4 eabf ac83 32c0
00000120: fe05 31c0 1c93 44c0 c633 f6bf 9934 c9bf
00000130: 3be6 a8bf 5f52 583f d87f e2be d4e7 e5bf
00000140: 8a48 3dbf b57c a4bf 184b eebf dfa5 2bc0
00000150: 8e29 e33f 085d 7ebf ac5c d93c 3d75 db3d
00000160: ccdc a63f 100c 7fb7 b413 97be 2679 c13e
00000170: 8aba 5e3f c906 eabe 87a4 6cc0 728a bbbe
00000180: 00a3 6cbf aff3 19be 6086 8abf f1b2 35c0
00000190: 24a4 8a3e 84ab cbbf 5330 62bf 1e3f bdbe
000001a0: a9ae cfbf 6be0 70c0 7179 30bf e546 11c0
000001b0: 4333 53bf 5276 8ebf 026d 3bbf 5dbb bfbf
000001c0: 8f05 df3f 0531 34c0 6b77 d3bf ff6e 8b3f
000001d0: 31c4 52c0 721c e4bf e453 88bf ff0c 223e
000001e0: 048e dbbe 92b9 63bf f652 fdbf 6c06 373f
000001f0: 53cf d8bf c6e1 803f b968 18c0 fed2 1c3f

sequential_1/dense_1/MatMul f4 [128, 108]
0.6214751 0.044951096 0.1555157 0.00014380203 0.29255617 0.20453213 -0.13667794 0.32499626
0.2633777 -0.15153265 -0.12239224 -0.06448212 0.7503057 0.10513683 -0.019566007 0.26002386
0.042433497 0.018133791 -0.20236763 0.08148985 -0.11811137 -0.0949125 -0.26768532 -0.033415258
0.7975395 -0.09177361 0.12880541 0.2846938 0.14676654 -0.021226402 -0.09794584 0.1629865
-0.15879768 -0.12333977 -0.102908134 0.16118668 0.36059487 0.17568728 -0.104399554 0.26093468
0.05384239 0.29774147 -0.16760832 0.39982358 0.51342976 -0.29576162 0.7192096 0.3853547
2.0114577 0.7963406 0.5897421 -0.12255776 -0.3215998 -0.007881713 -0.40314323 0.24266423
0.36236504 -0.6695288 -0.42275578 -0.47076723 0.9859318 -0.10927721 0.13845451 0.07312427
0.1529367 0.15874964 -0.16314906 0.09286132 -0.022415109 0.10897959 -0.17886525 -0.07648635
0.47099587 -0.18467449 0.08814835 0.250713 0.054118447 -0.16176341 -0.0030734888 0.1044923
0.0674006 0.20978224 -0.17441326 0.16409817 -0.41915214 0.08988617 0.025471423 -0.03253378
-0.17449456 0.2822089 -0.05855669 0.54760295 0.09524115 0.2265219 0.2774514 0.31891084
-0.058853373 -0.24178028 -0.07445543 0.27346587 -0.29870263 -0.27012616 -0.035288345 0.6306286
0.7273199 0.3009545 -0.09038386 0.024410434 0.14595024 0.2519772 0.5686005 -0.18772262
-0.15793933 0.0029516958 0.17092556 0.41797855 0.11845088 0.18615325 -0.31130967 0.19349107
0.124399774 0.30183423 0.2938204 -0.117759526 -0.026916493 0.3824313 -0.12353601 0.24766412
-0.18517731 0.053716272 -0.22635673 0.09086319 -0.0039568855 0.00642121 0.06378942 0.2956363
0.28531915 0.45585865 0.052834332 0.2572478 -0.32993865 -0.07136258 -0.4345971 0.17109495
0.113263905 0.14156145 0.14046648 0.33786 -0.28044644 -0.053857774 -0.024251742 0.14473954
0.10851721 0.061093252 -0.22090213 -0.13130918 0.7582376 2.3369393 1.8457987 -0.11246948
-0.95585006 -1.2801144 0.26120427 -0.68125165 -0.6517629 0.06296993 0.7473663 -0.7189782
-0.02330502 0.018987952 0.3240405 0.19151135 0.24106614 0.33871698 -0.08232297 0.37802628
-0.24159224 0.076957546 -0.28483698 0.13023658 -0.07434107 -0.47512087 -0.49311933 -0.07863345
-0.044963177 0.12341925 -0.010248351 0.36293164 -0.22111695 -0.5846927 -0.76399827 0.38519692
-0.14033759 0.06289841 0.05410148 0.4245654 -0.03244449 0.3377126 0.15977941 0.045286447
-0.28215525 0.078030765 0.2627248 0.087606035 -0.5247436 -0.21023564 -0.4753718 0.27787343
0.12316398 0.23373637 -0.25301394 0.39783683 0.46504882 0.1378748 0.21697657 0.30275413
2.5600262 -0.42108944 -0.17190062 -0.15469252 0.2964602 0.00830001 0.24490403 0.85255045
0.53737825 -0.22040816 -0.58487046 -0.12862997 2.1262012 -0.343667 -0.47959632 -0.077309825
0.11288795 0.032668136 0.054583997 0.725034 0.38034618 -0.33959654 -0.5727526 -0.32911253
1.7589017 -0.56729734 -0.3699297 -0.07036676 0.3678775 0.01345611 0.09839673 0.5085803
0.32824668 -0.2584818 -0.5567955 -0.33641422 -0.30378866 0.210261 0.3177588 -0.0983716
00000000: fe18 1f3f a41e 383d 823f 1f3e 90c9 1639
00000010: ecc9 953e df70 513e 4df5 0bbe e965 a63e
00000020: 71d9 863e 602b 1bbe c8a8 fabd 340f 84bd
00000030: 0914 403f fa51 d73d e448 a0bc d921 853e
00000040: bfce 2d3d 518d 943c 7639 4fbe 27e4 a63d
00000050: 60e4 f1bd 7c61 c2bd 0d0e 89be 70de 08bd
00000060: 8c2b 4c3f cdf3 bbbd 91e5 033e 63c3 913e
00000070: f849 163e fee2 adbc d497 c8bd efe5 263e
00000080: dc9b 22be 9099 fcbd 80c1 d2bd 1f0e 253e
00000090: e49f b83e 5ee7 333e 6fcf d5bd 3b99 853e
000000a0: d789 5c3d 9271 983e 84a1 2bbe adb5 cc3e
000000b0: 2270 033f 116e 97be 1f1e 383f 364d c53e
000000c0: b9bb 0040 fadc 4b3f 57f9 163f 90ff fabd
000000d0: bba8 a4be 4d22 01bc ca68 cebe f97c 783e
000000e0: e987 b93e 3d66 2bbf 7273 d8be 6708 f1be
000000f0: 0766 7c3f bbcc dfbd 05c7 0d3e 2dc2 953d
00000100: 709b 1c3e 448f 223e 8c10 27be 132e be3d
00000110: e49f b7bc b130 df3d 7428 37be e0a4 9cbd
00000120: 5f26 f13e 4f1b 3dbe 1f87 b43d 745d 803e
00000130: 4eab 5d3d 4fa5 25be 966c 49bb 0f00 d63d
00000140: 5309 8a3d 28d1 563e 6499 32be 5a09 283e
00000150: 1c9b d6be 3e16 b83d 72a9 d03c 2442 05bd
00000160: b4ae 32be af7d 903e 24d9 6fbd b52f 0c3f
00000170: cb0d c33d 5bf5 673e 1c0e 8e3e 4848 a33e
00000180: 3c10 71bd 4095 77be 177c 98bd b803 8c3e
00000190: 8def 98be fa4d 8abe 838a 10bd e070 213f
000001a0: a331 3a3f b516 9a3e 2c1b b9bd 64f8 c73c
000001b0: fb73 153e 2803 813e cd8f 113f 5c3a 40be
000001c0: d9ba 21be 3d71 413b 1c07 2f3e 4901 d63e
000001d0: 6096 f23d f59e 3e3e fb63 9fbe 8622 463e
000001e0: 4fc5 fe3d 048a 9a3e a16f 963e e82b f1bd
000001f0: fa7f dcbc 09ce c33e 7300 fdbd aa9b 7d3e
00000200: 1f9f 3dbe 9805 5c3d 0fca 67be 7b16 ba3d
00000210: c3a8 81bb 0369 d23b 07a4 823d a45d 973e
00000220: 5a15 923e 4e66 e93e d068 583d fcb5 833e
00000230: b8ed a8be 8b26 92bd 8383 debe 8433 2f3e
00000240: e8f6 e73d 7cf5 103e 72d6 0f3e fcfb ac3e
00000250: ad96 8fbe f899 5cbd 97ab c6bc 9a36 143e
00000260: 453e de3d eb3c 7a3d 2b34 62be ea75 06be
00000270: dc1b 423f 6a90 1540 2243 ec3f 6656 e6bd
00000280: 97b2 74bf cada a3bf 91bc 853e 8266 2ebf
00000290: efd9 26bf 61f6 803d 6653 3f3f f50e 38bf
000002a0: 2bea bebc 9f8c 9b3c a3e8 a53e 8d1b 443e
000002b0: 0bda 763e 506c ad3e f298 a8bd a98c c13e
000002c0: f563 77be eb9b 9d3d 27d6 91be bd5c 053e
000002d0: 2240 98bd 0b43 f3be 237a fcbe 930a a1bd
000002e0: 4f2b 38bd 3bc3 fc3d b3e8 27bc 2dd2 b93e
000002f0: 7b6c 62be 6cae 15bf 6495 43bf 8838 c53e
00000300: a8b4 0fbe e2d0 803d 8399 5d3d a360 d93e
00000310: 83e4 04bd aae8 ac3e 379d 233e 487e 393d
00000320: a776 90be 98ce 9f3d dd83 863e cb6a b33d
00000330: 9955 06bf 0348 57be ef63 f3be 6d45 8e3e
00000340: 663d fc3d 9658 6f3e 0b8b 81be 45b1 cb3e
00000350: e11a ee3e 0d2f 0d3e 1b2f 5e3e 9702 9b3e
00000360: 78d7 2340 0999 d7be b706 30be b767 1ebe
00000370: a2c9 973e c4fc 073c 1fc8 7a3e bf40 5a3f
00000380: 9f91 093f adb2 61be 12ba 15bf 93b7 03be
00000390: ae13 0840 1ff5 afbe a68d f5be 9d54 9ebd
000003a0: cc31 e73d 06cf 053d 7893 5f3d d49b 393f
000003b0: bcbc c23e 99df adbe ea9f 12bf 7081 a8be
000003c0: b123 e13f 663a 11bf 6d67 bdbe 731c 90bd
000003d0: 715a bc3e 0477 5c3c 3a84 c93d 5232 023f
000003e0: f30f a83e ba57 84be 268a 0ebf 7c3e acbe
000003f0: 308a 9bbe a94e 573e 48b1 a23e 0d77 c9bd
