saved_models/exported_model.tflite (tflite, 100124 bytes, 8 tensors)

arith.constant f4 [4, 32]
00000000: b2b4 93bf c69b 1dbf 2ad8 a2bf b342 21c0
00000010: 5311 5fbf 5221 623e 90d2 40be 2aa4 82be
00000020: ef60 06c0 6ff2 fdbc dcf1 563d b3c6 f9be
00000030: ea5a 9cbf 79ed 94bf 3aa7 90bf 15c6 89bd
00000040: fd72 dbbf e412 a2bd 60f7 78be 3605 5a3e
00000050: 5449 89be dcb8 0ac0 3b2b 043e 706c c1bf
00000060: 52f5 183b d054 08c0 f842 0dbe 03df 633e
00000070: a20c 90be cd3b e4be 7f9c 9fbf 7fdb 863e
00000080: f53b 13c0 de5c 21bf 1cd2 16c0 d0c9 85bf
00000090: db43 57bf e628 963c e229 843d 0eba 64be
000000a0: 87b2 0bc0 dd1d 82bd 3e62 b2be 4fa6 32be
000000b0: 4fb6 a4bf aaf4 563e b5e0 4bbf 1007 95be
000000c0: 9e1b efbf d117 34bf da31 92be aeaa 92be
000000d0: f1b1 08bf 79d7 02c0 3f93 023e e3d5 c4bf
000000e0: 995c 18bc c7f8 fdbf 1057 39be 1af0 2abe
000000f0: fe91 37bd c07a 2abf ce87 94bf 547f 1abe
00000100: b2a5 83bf 0272 03bf f863 a1bf 9d9a 01c0
00000110: c68d 83bf 03e6 8b3e fc3c 46be cd8f da3d
00000120: c463 13c0 985b c53b f6de d13d 814b d4bf
00000130: cb56 b9bf 5e20 66bf dd83 a8bf edab 81bc
00000140: 3f0e 55c0 8fad 74bd 6f43 ccbe c8a4 25be
00000150: d9ca 04bf 5f7d 34c0 ef0e 3d3d e5dd c0bf
00000160: e669 bb3d 98f7 86c0 ad83 afbb 8ac7 653e
00000170: d9c1 91be 56dc 01bf 4a45 26c0 15c4 8a3e
00000180: 2ec1 afbf b060 32bf d434 08c0 97a9 15bf
00000190: ebe6 18c0 5081 9f3d 4919 7b3d 5800 fabe
000001a0: 0beb 33c0 bcb6 d7ba 65ff 36bf 46d3 8dbe
000001b0: 433a 96bf 1ca2 443e cb8f 3cbf 96ca c0be
000001c0: c581 65c0 ec2f 3abf c432 86be 3952 b23d
000001d0: d43a 70bf 2839 04c0 5989 5e3d d269 3bc0
000001e0: 61a9 9f3d b2c9 00c0 2ce7 a03d 8ae2 f5bd
000001f0: 15e3 4fbe 2606 77bf bd0e d0bf 26e5 463b
-1.1539519 -0.61565816 -1.2722218 -2.519696 -0.8713581 0.22083023 -0.18830323 -0.25515872
-2.0996664 -0.03099939 0.05247675 -0.48784408 -1.2215245 -1.1634971 -1.1301033 -0.06727234
-1.7144467 -0.07913759 -0.24313116 0.2129105 -0.26813757 -2.167533 0.12907116 -1.5111217
0.0023339582 -2.1301765 -0.13795078 0.22253041 -0.28134638 -0.44576874 -1.2469634 0.26339337
-2.3005345 -0.6303233 -2.356574 -1.0452213 -0.84087914 0.018330049 0.06453301 -0.22336599
-2.1827714 -0.06353352 -0.34840578 -0.17446254 -1.2868136 0.2099177 -0.7963975 -0.2910695
-1.8680303 -0.7034884 -0.2855366 -0.28645843 -0.5339652 -2.0444014 0.12751482 -1.5377773
-0.009299421 -1.9841546 -0.18099618 -0.16693154 -0.044816963 -0.6659355 -1.1603944 -0.15087634
-1.0284941 -0.5134584 -1.2608633 -2.0250618 -1.0277641 0.27323923 -0.19359201 0.10671959
-2.3029642 0.0060228817 0.102476045 -1.6585542 -1.4479612 -0.8989314 -1.3165241 -0.01582905
-3.3289945 -0.05973583 -0.39895198 -0.1617614 -0.5187202 -2.820152 0.04615682 -1.5067717
0.09151058 -4.217724 -0.005356273 0.224394 -0.28468207 -0.5072683 -2.597979 0.27102724
-1.3730829 -0.69678783 -2.1282244 -0.584619 -2.389094 0.07788336 0.06130341 -0.48828387
-2.811221 -0.0016457657 -0.7148345 -0.2770025 -1.173653 0.19202465 -0.7365691 -0.3765456
-3.5860455 -0.7272937 -0.26210606 0.08707089 -0.93839765 -2.0659885 0.054330204 -2.9283338
0.07795978 -2.0123105 0.078565925 -0.120060995 -0.20301469 -0.96493757 -1.6254498 0.0030348985

arith.constant1 f4 [32, 64]
00000000: c21d fc3e 0822 be3f d185 8d3d d1e8 e8bd
00000010: c896 4bbf 3f74 eebe 1dbd dfbe 7393 283d
00000020: b2e1 8abe 4956 5e3f 162b 0cbf 3bb0 2f3f
00000030: 1d61 d6bf d1e3 cf3f 98a2 86be a0a1 0440
00000040: 7c0b 6ebd db4a eebf 088d f4be 7909 38c0
00000050: 8b04 8d3d 0268 9a3d 5d0f 263e 7f7e 35bf
00000060: 1bc4 923f 9243 bdbf 262e 58be 59b2 4a3f
00000070: f316 1a3e c922 773d 4e92 09c0 0817 923f
00000080: 8986 8cbd 45ec 92bf 0936 67bf 30e7 133e
00000090: 4ebe 64be 7821 5ebf f11a 783e f981 6c3d
000000a0: 2d50 efbe a023 c3be 7954 59bf 3c05 373f
000000b0: ea7a b6be f279 023f 61f0 e9bf 4705 ca3f
000000c0: 3e54 85bf 9a04 b23f 8c4f b2be eee5 813f
000000d0: 4810 913b a91f 0a40 6f34 67bf 331c dabe
000000e0: e1de 81bf 216b 82bd 5f9e cdbf d745 9bbc
000000f0: 8c46 6cbe 39b7 0cbd c3d8 b33d f344 b63d
00000100: ae8e 663e 5d0b d23e 4c5e 833f 5719 60be
00000110: dcb7 a93e 8f02 2a3f ed69 25bf f95c 8e3c
00000120: c8a4 efbd 77bb 563e 2f9b 6d3d ccd2 993e
00000130: 6c2e c23e 14d1 283e 0213 51bd 04c6 793e
00000140: 8d0d 5d3e 3927 b43e acfc a13c 27f7 9e3e
00000150: c78e c5bd 6b88 313a 8412 9dbd 2144 82bf
00000160: 58de 3c3f 4654 bdbd 5c15 393f fc3f f4be
00000170: fc8f 27bd d165 983d a066 cf3e 5ff2 a83d
00000180: ee03 dabd 402d 623e 7d7f 8c3e 6370 30bd
00000190: c497 633d 9161 4d3f 4285 7e3e 7351 4e3e
000001a0: c3c9 023f 6ceb 293f d526 fe3e 9f06 96be
000001b0: 092f d33e 87c6 a73e 7388 42bf 91ce 91bd
000001c0: 33f6 333e ac23 353e bbb9 053f 9352 083f
000001d0: f605 62ba cee8 223f 6b8a 453f eaf9 7fbe
000001e0: 9cc2 8d3f 437e e53e d8d3 bc3e 5ba3 5fbd
000001f0: 6dc1 46be aced 303f 9e2d babd cf39 c4be
00000200: 8d3c 843f fc05 0140 e787 7c3b 9830 73be
00000210: 2162 12bf dbf4 b8be 90c4 91bf ea1a c8be
00000220: ac79 08bf 9016 a0bc 5d91 d33f cf31 943e
00000230: 16dd 20c0 9384 1c40 2bfd bbbd 059e 5c40
00000240: f6fd ffbd 8d6d bf3f 09cf 343e f6f1 213c
00000250: abc0 223d b539 983f 545e 2fbc 628a d6bf
00000260: e984 1e3f ef26 7cbe 474c f7be 64b4 2b40
00000270: 8cec 08bd dfe9 473d 2766 3fbf a41d 0140
00000280: 8c5c 5d3e c452 523f 046b 08bf a287 3d3d
00000290: 7ef5 9c3f 681a 4e3f 0f69 38be 5fe3 29bd
000002a0: 39f8 1d3e 144d b4be 99a3 b7be 9678 4f40
000002b0: b3d3 a1bd 9917 7abe c542 9bbf b047 1840
000002c0: 0508 7ebe d586 5f40 fd1b 11bf 61cd 6940
000002d0: 317b 40bd d22b 7a3f 774a 1440 f8dc 5cbf
000002e0: ff21 06be 7f24 af3d 474d 383e 1e29 afbb
000002f0: f095 c43e 461a 23bf ded1 77bd 2da3 de3d
00000300: 15cc a53e 5a97 e43e 6d92 ea3d 3be2 b2bd
00000310: 3987 2c3e e351 cb3d 6d51 69bf 6cb0 15be
00000320: eca7 0ebd 151d e23f e71b b23e 068a b73f
00000330: 1779 69be 4252 343f b209 57be 4dbb 993f
00000340: ab2d b63e d238 d73c a0de 7c3d 1908 dd3e
00000350: e591 633e 90cd 98be 7cbe 383c 8225 99bf
00000360: 732b 54bd 3935 4abe be79 373d 5395 0040
00000370: 19b6 3e3e b8e3 f7bd 5e10 24bd 3421 1b3f
00000380: 3d15 d03e 7a51 a5be 3ae0 79bd 66a1 423d
00000390: e262 733f ce9d afbe 0ef7 be3e 9daf 073d
000003a0: 4a08 f6bd e050 fa3f 04c7 0dbf 2a28 1240
000003b0: 642a 313e 2c27 ab3d 34bb e53e 6bf5 9cbe
000003c0: 8df3 923e 0ebe 33be 0345 673f 107b dd3f
000003d0: 67af 0c3d b162 993e 303d e43e 1916 943e
000003e0: 9aea ee3c 3584 a23d 8f76 593e 188f f3bd
000003f0: 5f8c c73e dd0e a73f ba60 1f3e 592a 4f3f
0.49241453 1.4854136 0.06910289 -0.11372531 -0.7952695 -0.46573064 -0.4369897 0.041156244
-0.27125317 0.8685041 -0.54753244 0.6862828 -1.6748387 1.6241399 -0.26295924 2.0723648
-0.05811642 -1.8616594 -0.47763848 -2.8755782 0.06885632 0.07539369 0.16216798 -0.7089614
1.1466097 -1.4786246 -0.21111354 0.79178387 0.15047817 0.060335908 -2.1495547 1.1413279
-0.06861598 -1.1478354 -0.90316826 0.1444366 -0.2233822 -0.8676982 0.24229027 0.05774114
-0.46740857 -0.38113117 -0.8489452 0.7149236 -0.3564065 0.50967324 -1.8276483 1.578286
-1.0416334 1.3907654 -0.34826314 1.0148294 0.0044269897 2.1581824 -0.9031438 -0.4259964
-1.0146142 -0.063680895 -1.6063956 -0.0189542 -0.23073786 -0.034354422 0.087815784 0.0889987
0.22515365 0.41024294 1.0263152 -0.21884666 0.33148086 0.66410154 -0.64614755 0.017378317
-0.117013514 0.2096995 0.058009323 0.30043638 0.37926042 0.16486007 -0.051043518 0.24391943
0.215872 0.35186175 0.019773804 0.31047937 -0.09646373 0.0006772342 -0.07669547 -1.0177041
0.7377677 -0.092445895 0.72298217 -0.47705066 -0.0409088 0.07441295 0.40507984 0.082493536
-0.10645281 0.22087574 0.27441016 -0.04307593 0.055564657 0.80227 0.24855521 0.20148258
0.51089114 0.6637485 0.49639 -0.29301926 0.41246822 0.32768652 -0.75989455 -0.071194775
0.17574386 0.17689389 0.5223653 0.53251 -0.0008622104 0.6363648 0.77164334 -0.24997678
1.1075015 0.44822893 0.36880374 -0.054599147 -0.19409724 0.6911266 -0.09090732 -0.38325354
1.0330979 2.0159903 0.0038533153 -0.23749006 -0.5718098 -0.3612431 -1.1388111 -0.39083034
-0.53310657 -0.019542009 1.6528736 0.2894425 -2.513494 2.4455917 -0.09179147 3.4471447
-0.12499611 1.4955307 0.17657103 0.009884348 0.039734524 1.1892611 -0.010703642 -1.6760981
0.61921555 -0.24624227 -0.48300382 2.6828852 -0.033428714 0.04880702 -0.7476525 2.0174341
0.21617335 0.8215754 -0.5328829 0.046271928 1.2262418 0.8050904 -0.18008827 -0.041476604
0.1542672 -0.35215056 -0.35867003 3.241735 -0.079017065 -0.24423064 -1.2129751 2.3793755
-0.24807747 3.4926045 -0.5668333 3.6531603 -0.046992484 0.97723114 2.317045 -0.8627467
-0.13098906 0.08551883 0.17998229 -0.0053454777 0.38395643 -0.63711965 -0.06050288 0.10870967
0.32382265 0.44646722 0.1145371 -0.08734556 0.16848458 0.09927728 -0.9113987 -0.14618081
-0.03482811 1.7665125 0.34786913 1.4338996 -0.22800098 0.70438015 -0.20999792 1.2010285
0.35581717 0.026272211 0.06173575 0.4317024 0.22223623 -0.29844332 0.011275884 -1.1964571
-0.05179925 -0.19746865 0.044793837 2.009114 0.18624152 -0.12103981 -0.04005467 0.6059754
0.40641204 -0.32288724 -0.061004855 0.047517203 0.9507276 -0.34300083 0.37297863 0.033126462
-0.120133 1.9555931 -0.553818 2.2837014 0.17301327 0.08357081 0.44869387 -0.3065599
0.2870144 -0.17552969 0.9033968 1.7303181 0.034346964 0.29958108 0.44577932 0.2892311
0.029164601 0.07935373 0.21236633 -0.11892527 0.38974282 1.3051411 0.15564242 0.8092399

arith.constant2 f4 [64, 128]
00000000: d921 0cbe f9a2 86bf 3ff8 4e3e f125 87bf
00000010: 5eea 7cbe 4c7e 963f bd27 f63c acd2 49be
00000020: 3c36 33bf 1936 40c0 54bb 66bf 137d fbbe
00000030: e5bc b4bf 4e66 dabf 77b3 993d c2d4 ba3f
00000040: d6e6 b53f ae54 103d 7961 373e 61a6 06c0
00000050: f176 d0bf 4c28 c8be 26b5 40bc 988e c9bf
00000060: 71cb c2be cbb8 483e 8ac5 4740 485f 803e
00000070: 4495 32bf b4f7 17bd 3871 e93e 5b43 d9bf
00000080: 634a 9b3e 9ab0 8fc0 1f25 693f 469f 98bf
00000090: f8eb a4be a21d cf40 ca38 54c0 4b3b 1240
000000a0: 88d9 1f3f 83e0 193f f566 bfbf 7d18 3fbf
000000b0: 5aee 333f effb 80bc 79f2 88bf 57d5 64be
000000c0: 7a97 90bf ae32 93be 637d 6b3e c8d0 7d3f
000000d0: ff73 54bd 20a0 8d3e 7765 23c0 96f0 b33e
000000e0: ab96 96bf a6ec 83be 8352 e03f aa46 043f
000000f0: 5150 04c0 0eab d33f 266a 11be 37c8 6bc0
00000100: 0b51 37bf 3932 2a3f 3da8 58bf 91ed bdbe
00000110: 2876 0140 0ead 6140 16c6 b43e a737 3840
00000120: 0ed6 e13f 8185 643f 5b80 7b3f 6726 20bf
00000130: f03a 893f 6888 363f c984 35bf db40 0d3e
00000140: ba9c e63e a417 d63e 7abb d03f ba06 f2bf
00000150: adb2 863f bad6 b0be 313d dabf 8f2b efbe
00000160: 0f7e 623d 413a 5c3f e3bc 013f 1a36 b93e
00000170: 6e73 2d3f 3b62 1dbe fbd8 c4be 152f 0e3f
00000180: 06a7 d93f 98bc a1bd 3837 59bf 83a2 dbbe
00000190: 4c23 30bf 614a 0cbf 83c5 fa3d 39e1 17bf
000001a0: 1543 97bf 78f6 4ac0 2753 a2bf 465e b73e
000001b0: 65b1 6c3f 555e 69bf 94c5 733e 829c 92be
000001c0: 6e5b a9bd 6ed2 24c0 0e4b c43d 13b3 99bf
000001d0: d295 81be fb17 a3bf 8664 34bf 976a 54bf
000001e0: 7dcd 2bbe 7a50 053c 8c76 d8bf 0059 383d
000001f0: 79d0 12bf 7e4f 2ebe 87b3 b3bf ec75 0ebf
00000200: b4d1 5f3e cf48 4940 4f2e c140 85f5 5440
00000210: e46e 1540 3401 7040 fb3d c03f 3100 e23f
00000220: e348 4e40 0638 973f 9874 7d40 ef09 7140
00000230: 47e1 f23f 4b51 f7be e53e 2fbf e715 0740
00000240: 4702 3440 68b4 4f40 e702 96bf 9bb9 d63f
00000250: 59d5 2340 10a0 3e40 5dd0 683e 5809 413f
00000260: d9e7 b23d 6539 25bf 716f 1840 4811 d5bf
00000270: 1734 fe3f 517d a040 436d 6e3f 919c cc40
00000280: 103e 1d3e 8ad3 923f b631 0a40 a4f0 6440
00000290: 9bcd 1740 db88 ff3f 6df4 4540 7b66 f83f
000002a0: 7906 a53f 9f34 8a40 d566 f63d 9d35 4c40
000002b0: 1410 f3bf 1591 49bf 3c8e 8f3f 22ac 4740
000002c0: 9e9d b83f 03b3 a13f f34c 1d40 36db 80bf
000002d0: 58e4 1b40 b56f 9bbf 7a20 aa3f 0f48 9a3f
000002e0: 60cc 00bf 6655 5e40 61cb 823e 9408 d040
000002f0: 7630 ee3f fd50 fdbf a66f 213f 6e8c c740
00000300: 70a3 5140 e3a3 2240 59cf 133e 507e f23f
00000310: 2bea 7240 3211 f43e c88e 3fbf 0739 7840
00000320: b8dd d23f a1a1 8d40 6a83 2940 f954 bf3e
00000330: d7be 0540 78c5 8ebf 7d99 ab40 dd29 abbf
00000340: 64a7 21bc 3425 ef3f 2098 4c3d 4ff6 4e40
00000350: 6e23 2a3f 0bc7 ff3e 1afc 4bbf 7c74 1d40
00000360: 41a0 6640 37d5 8b3f bd18 e43f 4312 3ec0
00000370: 414f 5940 7d38 a03f 8cd7 ff3f 38a6 5e3e
00000380: 1b69 8840 8364 243e 7d3a d73f 9cf4 7940
00000390: 6131 95bf 890e a540 29f8 cc3e 5f39 8bbe
000003a0: 2824 3f40 39dd a440 0e8b 5a40 fddc d0bf
000003b0: af59 973f e64f 0ec0 cdf5 cabe 7c8d 913f
000003c0: 56fe c740 d9f3 0f40 cf3e 32c0 b5e7 2340
000003d0: 8106 0a3f 5b6d 6f40 e5cd 6d40 69ea c73f
000003e0: 540b 0640 9882 7b3f 4050 0940 3c09 47bf
000003f0: ae7d d63f f1e3 de40 f6e8 633f 730f ff3f
-0.13684787 -1.0518485 0.20211886 -1.0558454 -0.24698779 1.1757293 0.030048246 -0.19709271
-0.7000463 -3.0033019 -0.9012959 -0.49118862 -1.4120146 -1.7062471 0.07504933 1.4596179
1.421107 0.035237007 0.17908277 -2.103905 -1.6286298 -0.39093244 -0.011761939 -1.5746641
-0.38045838 0.19601743 3.1214318 0.25072694 -0.6975901 -0.037101462 0.45594192 -1.697368
0.3033019 -4.490308 0.9107227 -1.1923606 -0.3221128 6.4723673 -3.3159661 2.284869
0.624413 0.601082 -1.4953295 -0.7464674 0.7028557 -0.015745131 -1.0698997 -0.22347008
-1.1296227 -0.28749603 0.2299705 0.991467 -0.051868435 0.27661228 -2.553068 0.3514449
-1.176473 -0.25766486 1.752518 0.51670325 -2.0674021 1.6536577 -0.14200649 -3.6840951
-0.71608037 0.66482884 -0.8463171 -0.3709531 2.0228367 3.5261874 0.35307378 2.8783967
1.7643449 0.8926621 0.9824273 -0.625586 1.0721111 0.7130189 -0.7090574 0.13794272
0.45041448 0.4181491 1.6307213 -1.8908303 1.0523278 -0.34538823 -1.7049924 -0.4671292
0.055296 0.8602639 0.50678843 0.3617409 0.67754257 -0.15369503 -0.38446793 0.5554059
1.7004097 -0.078972995 -0.8484988 -0.42897424 -0.6880386 -0.54800993 0.122447036 -0.5932804
-1.1817347 -3.1712933 -1.2681626 0.35814112 0.9245818 -0.91159564 0.23805839 -0.2863503
-0.08269392 -2.5753436 0.09584628 -1.2007774 -0.25309616 -1.2741693 -0.70465887 -0.82975143
-0.16777606 0.008136863 -1.6911178 0.045006752 -0.57349354 -0.17022511 -1.4039162 -0.55648685
0.21857339 3.145069 6.036903 3.3274853 2.3348932 3.7500734 1.5018915 1.7656308
3.2231987 1.1813972 3.9602413 3.7662313 1.8974999 -0.4830421 -0.68455344 2.1107118
2.812639 3.2453861 -1.1719636 1.6775392 2.5598967 2.9785194 0.22735734 0.7540488
0.08735628 -0.645407 2.3818018 -1.6645899 1.9859647 5.0152974 0.9313547 6.394112
0.15355706 1.1470807 2.159284 3.5771875 2.3719242 1.996364 3.0930436 1.9406275
1.28926 4.3189235 0.120313324 3.1907723 -1.8989282 -0.78737 1.1215281 3.1198812
1.4423101 1.2632755 2.4578216 -1.0066898 2.435812 -1.2143465 1.3291161 1.205324
-0.5031185 3.4739623 0.2554579 6.501047 1.8608539 -1.9790341 0.63060987 6.2358923
3.2756004 2.5412529 0.14434566 1.8944798 3.7955425 0.4766937 -0.7482724 3.8784807
1.6473913 4.42598 2.6486459 0.37369516 2.089773 -1.1154013 5.3624864 -1.3372151
-0.009866569 1.8683228 0.049949765 3.2337835 0.6646031 0.49956545 -0.7968155 2.4602346
3.6035311 1.0924443 1.782005 -2.9698646 3.3954623 1.2517239 1.9987655 0.21743095
4.2628303 0.16053967 1.6814724 3.9055548 -1.1655694 5.1580243 0.4003308 -0.27192208
2.9865818 5.1520047 3.4147372 -1.631744 1.1824244 -2.2236266 -0.39640656 1.1371303
6.249797 2.2492583 -2.7850835 2.5610173 0.53916174 3.7410495 3.7156918 1.5618411
2.0944414 0.98246145 2.145523 -0.77748466 1.6757104 6.965325 0.89027345 1.992659

arith.constant3 f4 [4]
00000000: adfe 89bd f139 35be 51c0 a13e 2d09 1fbe
-0.06738029 -0.17697884 0.31592038 -0.15530844

arith.constant4 f4 [32]
00000000: b96d a43f b439 35bf 9d72 0ac0 22e1 bbbf
00000010: 40b9 21c0 b70e 69bf 4217 543f 8bae 19c0
00000020: 0dfa 08c0 803a f1bf d783 79bf c293 adbf
00000030: 5e14 07c0 90e0 0ebf a745 c7bf 35d9 acbe
00000040: 3b66 3ebf c207 a3be 0bc0 01bf 568c 59be
00000050: 9245 edbd 8a0c 49c0 36ec 4640 eaa2 0fc0
00000060: 2323 aa3f b487 1fc0 00f7 e9bd 2b7f ecbe
00000070: 7338 b7bd 3a45 50bf 37d7 01be 7827 fabe
1.2845985 -0.70791173 -2.1632454 -1.467808 -2.5269318 -0.9103808 0.8284799 -2.4012783
-2.140262 -1.8845978 -0.97466797 -1.3560717 -2.110618 -0.55811405 -1.5568131 -0.33759466
-0.7437474 -0.31841856 -0.5068366 -0.2124494 -0.11585535 -3.1413903 3.1081672 -2.2443185
1.3291973 -2.4926577 -0.11424065 -0.4619077 -0.08946314 -0.8135563 -0.12679754 -0.48858237

sequential_1/dense_1_2/Add/ReadVariableOp f4 [64]
00000000: 1d49 1a40 123f 97c0 4e29 07c1 88dc 1fbe
00000010: 4ffd c8be f1af 49bf d45a ef3f 23e5 e2be
00000020: ff12 45bf 0042 1cc0 c983 3d40 e8e6 80c0
00000030: 75a5 f1bf bbe4 0cc0 5e12 bdbd db53 d8bf
00000040: facf 71bf 6fb4 d5c0 b1df 74be 6c52 21c0
00000050: 6c6a 7bbe 454a 2bbf f077 21be 66b4 c440
00000060: 72dd dec0 a232 57c0 9050 8ebf 24f1 fbbf
00000070: ef5d e2bd 2d81 25be 040f ffc0 3349 a43f
00000080: 406f e4be daa2 bac0 46b5 4ebf b5be f3bd
00000090: b531 8ebf 3ec4 9cc0 9720 44c0 b52b d0be
000000a0: 2972 30bf bd75 2dc0 e187 00c1 d116 3ac0
000000b0: 66ac b9be dba6 c0c0 3848 0e3e 6839 07be
000000c0: 45fa 11c1 0c32 003d dc53 1fc1 3f8d f9be
000000d0: 8ead 0bbe 0054 32be 5566 04c1 3901 03be
000000e0: 6f7e 1cc1 b438 29bf d4bc 35c0 8df9 4cbe
000000f0: 148e ebc0 29d0 34c0 fcf6 d5bd 653e efbe
2.4107125 -4.726449 -8.447584 -0.1561147 -0.3925576 -0.7878409 1.8699594 -0.44315442
-0.7698211 -2.4415283 2.9611685 -4.028187 -1.8878618 -2.2014606 -0.09232019 -1.6900591
-0.9445797 -6.6782756 -0.23913456 -2.5206556 -0.24552315 -0.669102 -0.15768409 6.1470213
-6.964532 -3.3624654 -1.1118336 -1.9682965 -0.11053073 -0.16162558 -7.970583 1.2834839
-0.44616127 -5.8323793 -0.8074535 -0.11901609 -1.1108919 -4.8989553 -3.0644891 -0.40658346
-0.68924195 -2.7103112 -8.033174 -2.9076426 -0.36264342 -6.020368 0.13894737 -0.13205492
-9.123601 0.03129773 -9.9579735 -0.48740575 -0.13640425 -0.17414856 -8.274983 -0.12793435
-9.780868 -0.6610215 -2.8396502 -0.20017071 -7.3610935 -2.825205 -0.10447499 -0.4672729

sequential_1/dense_1/Add/ReadVariableOp f4 [128]
00000000: 31aa cb40 1844 f5c0 6062 43c1 133d 72c1
00000010: aa00 d7c0 b46a 84c1 e0bc fac0 1c32 0b3f
00000020: 947a 83c0 6beb 3cc0 0ed6 5fc1 79e7 19c1
00000030: 3515 61bf f98e a4c0 4ae8 3541 bc76 cbc0
00000040: 7cf5 80c0 0a10 cec0 3625 9cbe c4e9 8cc0
00000050: e404 d4c0 2c92 7cc1 8c07 9940 e7d9 98c0
00000060: c60b 8ebf b6c8 303f bc36 c2c0 4b10 af40
00000070: fd92 5bc1 2d25 4dc1 f106 18c0 a82c 61c1
00000080: 415c 74be 19ad b5c0 0054 7ec1 575e ecc0
00000090: da3b 81c0 bc43 1ec1 9d00 0ec1 b80c d8c0
000000a0: efd9 01c1 6323 76c1 c0c1 bbc0 5dca 9dc0
000000b0: 98fd 26c0 916d a940 d567 bcc0 4c7f 86c1
000000c0: 1b80 07bf de2d 90bf 1d71 3ac0 67af 82bf
000000d0: cbb9 c0c0 94f8 07c0 21c9 29c0 2fd2 0ec1
000000e0: 42bd 12c0 bc89 06c1 3deb 09c0 fd14 76c1
000000f0: 294c e4c0 ea31 9dc0 3013 a640 eec5 30c1
00000100: 05e8 ecc0 abd7 09c1 cc2d 2dc0 03d8 85c0
00000110: 10d7 02c1 e1f2 47c1 4efd 883f a115 17c1
00000120: 275f 9ec0 43c9 74c1 6309 c5c0 4fda 9ebf
00000130: 89d3 8fc0 788b b8bf 11a9 f8c0 10f1 b840
00000140: b016 7fc0 e78a 47c0 0f1a 26c0 fa29 0dc1
00000150: dd00 08c0 5fc5 b3c0 db09 79c0 67ee 76c1
00000160: 7189 35c1 aea8 72c0 3a3c a8c0 e728 1641
00000170: 062f 29c1 7258 9abf 0f5c 35c1 fa95 ffc0
00000180: 6751 8bc1 7a21 dbc0 010d 16c1 5dd0 1fc1
00000190: 3e17 eb40 6c74 dfc0 1043 f2c0 e693 aac0
000001a0: 1056 64c1 67d6 0dc1 73ce e0c0 5880 3a3f
000001b0: ec8a f2bf 5996 54c0 dac8 8940 080d 9440
000001c0: 6876 19c1 5956 c0c0 b99c 7c40 675e f5c0
000001d0: 4405 413f 8db7 3dc1 98ab 27c1 8dd7 c3c0
000001e0: b807 debe 0611 10be 265c d7c0 e4b4 bc40
000001f0: d391 b2c0 3d71 65c1 103e c8c0 fe75 28c0
6.3645253 -7.664562 -12.211517 -15.139911 -6.718831 -16.552101 -7.835556 0.54373336
-4.108713 -2.9518688 -13.989759 -9.619012 -0.87922984 -5.1424527 11.369211 -6.358244
-4.0299664 -6.439458 -0.3049714 -4.403536 -6.625597 -15.7856865 4.7821712 -4.7765994
-1.1097343 0.6905626 -6.0691814 5.470739 -13.723386 -12.821576 -2.3754237 -14.073402
-0.23863317 -5.67738 -15.895508 -7.386516 -4.038556 -9.891537 -8.87515 -6.7515526
-8.115706 -15.383639 -5.867401 -4.9309525 -2.6092281 5.294625 -5.887675 -16.812157
-0.5292985 -1.1263998 -2.913154 -1.0209779 -6.02268 -2.124547 -2.652901 -8.926314
-2.2928014 -8.408627 -2.1549828 -15.380124 -7.134297 -4.912343 5.189842 -11.048323
-7.4033227 -8.615153 -2.7059202 -4.1826186 -8.1775055 -12.496797 1.0702302 -9.4427805
-4.9491153 -15.299136 -6.157396 -1.2410372 -4.494572 -1.4417562 -7.770638 5.7794266
-3.9857597 -3.117853 -2.5953405 -8.822748 -2.1250527 -5.617843 -3.8912265 -15.433204
-11.346055 -3.7915454 -5.257352 9.384986 -10.57398 -1.2058241 -11.334975 -7.9870577
-17.414747 -6.8478365 -9.378175 -9.98837 7.346587 -6.9829617 -7.5706863 -5.330554
-14.271011 -8.864844 -7.0252013 0.7285209 -1.8948646 -3.3216765 4.305768 4.6265907
-9.591408 -6.0105405 3.9470656 -7.6677737 0.7539866 -11.857312 -10.479393 -6.1200624
-0.43365264 -0.14068994 -6.7299986 5.8970814 -5.580301 -14.340146 -6.257576 -2.6322017

sequential_1/dense_1/MatMul f4 [128, 108]
00000000: 3b2f 4ebf f844 28c0 c0f3 0cc0 a03f c4bf
00000010: 39d8 aabf 21ed 6bc0 34d2 4bbd 017e 8cbc
00000020: b6d5 903d fd38 01bf 9a15 a7be ec43 543d
00000030: 3ce5 2ebf 0a04 dfbf 2ee0 a0bf 5753 c6bf
00000040: 08d5 c6bf 4a68 3fc0 80d3 873e 6d0d 49be
00000050: 7ccc 9bbd 4617 9cbe 0e88 f7be fd6c 6bbd
00000060: bd78 02bf db77 55bf af60 a8be d421 013e
00000070: e86a dd3c 826a a7bf a992 acbe ab79 7b3e
00000080: bb88 5c3e 62b0 66be 7e73 f5bd 79d9 a53d
00000090: 33fe 753f ea04 c13d 21d0 d5bc ebb3 2c40
000000a0: 48e0 08c0 7023 9cbf cb51 ca3d bfeb 5c3f
000000b0: 72d8 c53e 3eea 05be 6913 b23e 040e 263e
000000c0: b100 4d3f c08e 663f 79fe 343f c910 8d40
000000d0: b14e 35bd 26f8 ca3f 629e adbe dd82 323f
000000e0: 32d7 1b3f 5033 5e3f 051b 64bf f15a 833f
000000f0: a773 18bf f64f 67bf a72d a0be db85 7e3e
00000100: 0f55 d43d 9bf7 8ebf 8b6b e4be b8ea 5fbb
00000110: 67f3 2d3e 1f32 bcbe a01d 7abe b61b ccbc
00000120: 5e37 aabe cdc3 1ebe e7e4 b13c 4c2e c03f
00000130: 6c9b fd3e 8466 87bf 44fc 013d e733 b2be
00000140: 33a2 593e ded1 313f 2476 0a3e d4a6 bf3c
00000150: 95f8 3d3f 1c34 933b 28c0 d53e c6b2 8a40
00000160: eebd c33f 7c56 fd3e 4664 513f c4b8 f0b8
00000170: d818 013e bbf8 89bd 4c3c 483f b828 07bf
00000180: eb0e 15bf f07d ac3f 1bbd 1640 7833 a640
00000190: 1697 1c40 2b3d 3a40 1f87 bfbd 4c5e 033f
000001a0: b646 74be 1d8a 203e 4835 55be 872c fc3c
000001b0: 5194 fa3e 96d7 353f 0f5f ef3d e1af 10bf
000001c0: dec8 96bc 63d3 a0bb 9b20 c03d 3284 91be
000001d0: 52e9 38be 893b bdbd b0e7 503e 9cfa ddbe
000001e0: 3ecf 643e 18a8 d03e 30c8 0e3c 855f 40bf
000001f0: 4965 28be d267 e2be f9b0 02be aeb5 dc3d
00000200: 9c0c 343e c095 823e 402d 413c 7395 f6bd
00000210: b8af fd3e f5fe d93e d676 b7bd c492 753f
00000220: dfc6 b93f e695 e43e 3991 373d 0771 de3d
00000230: 2b10 f93d 9445 b53c e352 593e 6247 0c3e
00000240: a841 763e 610d b93e 6a19 b63e 022a df3f
00000250: 49cb bbbf 85ea 9dbf 9594 753e fec6 22be
00000260: 10f3 0a3d dbb8 19be c532 393e 1bf9 1ebe
00000270: 0cb5 423f 65eb af3f 987b e53f c067 6cc0
00000280: 60bf aebf fbe3 9abf 8a51 323e 23e9 a9bd
00000290: 961c f23d 0315 be3e 26b5 de3e 69bc 293e
000002a0: 0e29 033f c5e8 133f a537 88bc dce4 7d3f
000002b0: 75fb c73f 6413 713e 57a7 833d 858c 413e
000002c0: 5a93 483e bbb8 2ebd 27da 443e 344c 823e
000002d0: 3a2e 073d c2f5 da3d ddc6 d0bd 9407 8f3e
000002e0: 0e86 883f 15d7 823d d252 823d b215 29be
000002f0: 95cd 0bbe f3f9 6a3c 4eec 893e 0591 7dbe
00000300: e487 663e 90a5 0c3f 070b 8b3f e09e 663f
00000310: aec3 b4bf d560 76bf 6fa8 1ebd 92b2 f53d
00000320: b332 5dbe 4e42 9f3d 2bda 123f 7c0b de3d
00000330: 0e6b e73d 6249 363f f26e fd3e a02c 843e
00000340: aa83 6c3c 1e7f 483f 4ad3 cd3d ca13 883e
00000350: 9e25 1abe efe1 cfbd 16dc c13e 8450 a4bd
00000360: a4f2 843f c794 b63e 3823 133e a760 e03f
00000370: 99ed 683f fe66 3f3f 05ee debe 7c0d 383f
00000380: bcb2 f3bc 2c76 893e 7269 253f bb52 42be
00000390: 3f15 673f 1bef 543d 3693 833d 61ef 933e
000003a0: 329c 48be 50df d0be a535 82be a0b6 68be
000003b0: d330 a4be 9ad3 733e 46ee fc3e 589e 62be
000003c0: 8fcf 5b3f b80d 8f3d 2962 0abe 9a93 473e
000003d0: bdb3 82be 4ea7 67bf c4f5 293f addf a33d
000003e0: 73a3 a9bd b5a5 893e 2712 c13e fb13 683e
000003f0: 9658 4c3f 847f 253e 3f7a dc3e b9bd e8bf
-0.8054082 -2.6292095 -2.2023773 -1.5331917 -1.3347236 -3.6863482 -0.049761012 -0.017149927
0.07072012 -0.5047758 -0.32633668 0.051822588 -0.68318534 -1.7423108 -1.2568414 -1.5494183
-1.5533762 -2.9907403 0.2652855 -0.19634028 -0.07607362 -0.30486506 -0.4834599 -0.057476986
-0.5096548 -0.8338601 -0.32886264 0.1261056 0.027028516 -1.3079379 -0.33705643 0.24558131
0.21536534 -0.22528222 -0.11984919 0.0809812 0.96091 0.094247654 -0.02610022 2.6984813
-2.138689 -1.2198315 0.09878882 0.8629722 0.38641697 -0.13077638 0.34780434 0.16216284
0.8007918 0.9006157 0.70700794 4.408299 -0.0442645 1.5856979 -0.339099 0.6973093
0.60875237 0.86797047 -0.8910373 1.0262128 -0.5955147 -0.90356386 -0.3128483 0.2485575
0.10367786 -1.1169313 -0.446133 -0.0034167003 0.16987382 -0.3675699 -0.24425364 -0.024915557
-0.33245367 -0.1550438 0.021715594 1.5014129 0.4953264 -1.057816 0.03173472 -0.34805223
0.2125328 0.69460857 0.1352163 0.02339498 0.7420743 0.004492296 0.41748166 4.334323
1.5292337 0.49480045 0.8179363 -0.00011478507 0.12607133 -0.06736895 0.78217006 -0.52796507
-0.5822589 1.3475933 2.355292 5.193783 2.4467216 2.9099834 -0.09351944 0.5131576
-0.23855099 0.15677686 -0.20821106 0.030782951 0.4894128 0.71032083 0.11688053 -0.5651837
-0.018406328 -0.0049080118 0.09381219 -0.2842117 -0.18057755 -0.09239871 0.20400882 -0.43355262
0.22344682 0.40753245 0.008714721 -0.7514575 -0.16444887 -0.44219834 -0.12762822 0.1077684
0.17582935 0.25504875 0.011790574 -0.12040224 0.49548125 0.4257733 -0.08958213 0.9592707
1.4513816 0.44645613 0.04481623 0.10861402 0.12161287 0.022127904 0.21223025 0.13699105
0.24048483 0.3614302 0.35566264 1.7434695 -1.4671413 -1.2337195 0.23982461 -0.15896222
0.03392321 -0.15011923 0.18085773 -0.15524714 0.76057506 1.3743712 1.7928343 -3.6938324
-1.3652153 -1.2100824 0.17413917 -0.082964204 0.118218586 0.37125406 0.4349758 0.16575779
0.5123452 0.57777053 -0.016628096 0.99177337 1.5623614 0.23542553 0.06428402 0.1890126
0.1958746 -0.04265664 0.19223844 0.25448763 0.03300307 0.10691406 -0.1019418 0.2793547
1.066591 0.0638868 0.06363453 -0.16512182 -0.13652642 0.014341819 0.269381 -0.24762352
0.22512776 0.5494013 1.086274 0.90086174 -1.4122217 -0.96241504 -0.03873485 0.1199695
-0.21601371 0.077763185 0.5736415 0.10842034 0.11299716 0.71205723 0.49498707 0.25815296
0.014435688 0.78318965 0.10050066 0.26577598 -0.15053412 -0.10150515 0.37863225 -0.0802317
1.0386548 0.35660383 0.14368904 1.7529496 0.90987545 0.7476653 -0.4354097 0.71895576
-0.029748313 0.2684797 0.6461402 -0.18976872 0.90266794 0.05198584 0.06424563 0.2889357
-0.19590834 -0.40795374 -0.25431553 -0.22725916 -0.320685 0.23811188 0.49400538 -0.22130716
0.85863584 0.069850385 -0.13514008 0.194899 -0.25527754 -0.9048966 0.66390634 0.08001647
-0.082831286 0.26884237 0.37709162 0.22663872 0.7982267 0.16161925 0.43062016 -1.8182899
